current_model.pth (torch_old, 5377 bytes, 4 tensors)

weight f4 [8, 2]
0.3695343 -0.54932404 0.30160117 0.016161699 0.5961565 0.5667904 -0.25930145 0.2086664
0.56756073 0.10403403 0.13914442 0.049344987 0.6829696 0.3852278 0.20456424 0.42066792
00000000: 9a33 bd3e 80a0 0cbf 786b 9a3e 8a65 843c
00000010: b69d 183f 2d19 113f 29c3 84be a5ac 553e
00000020: a94b 113f cb0f d53d e07b 0e3e f81d 4a3d
00000030: 19d7 2e3f 943c c53e 4a79 513e c961 d73e

bias f4 [8]
-0.24142206 -0.14975956 0.54348356 0.34941304 -0.17531775 -0.09613057 -0.3266013 0.2416848
00000000: 5837 77be 925a 19be bd21 0b3f 44e6 b23e
00000010: 7f86 33be 1be0 c4bd 4938 a7be 387c 773e

weight f4 [3, 8]
-0.2122548 -0.24395643 0.24079944 -0.32100776 0.28600875 0.25525352 -0.09955959 0.058230553
0.23411842 0.051646985 0.09070332 -0.17929123 -0.29130986 0.26414892 -0.07074545 0.12144191
0.21025531 -0.20427531 -0.2404173 -0.18324086 -0.06925706 0.13719794 -0.2070695 0.32181507
00000000: 5359 59be b7cf 79be 2194 763e 215b a4be
00000010: bd6f 923e 97b0 823e e6e5 cbbd 2983 6e3d
00000020: bdbc 6f3e ca8b 533d aac2 b93d 1f98 37be
00000030: 9126 95be 873e 873e fee2 90bd 89b6 f83d
00000040: 2b4d 573e 8c2d 51be f42f 76be 7ea3 3bbe
00000050: a5d6 8dbd 9e7d 0c3e 070a 54be f2c4 a43e

bias f4 [3]
-0.21481884 -0.3254862 0.15012185
00000000: 78f9 5bbe 21a6 a6be 8bb9 193e
