current_model.pth (torch_old, 5377 bytes, 4 tensors)

weight f4 [8, 2]
000000 c6 f1 bf 3e 99 24 0b be 30 08 09 bd 00 3b 82 bc
       0.37489146 -0.1358818 -0.033455074 -0.015897274
000010 20 5c a8 3e e2 e9 06 3f 76 f4 8b be fa 2e fb be
       0.32882786 0.52700627 -0.27334946 -0.49059278
000020 ac c9 44 be 86 82 86 3e 94 07 32 3f 79 33 33 3f
       -0.19217557 0.26271456 0.69542813 0.70000416
000030 8a 72 45 3f 22 64 16 3f bf 61 8b 3e a1 a7 0f bf
       0.771279 0.5874654 0.27223012 -0.56115156

bias f4 [8]
000000 ce 9e 37 bf e2 67 c9 be 5f 8a 35 bd 5c fb 09 3e
       -0.7172669 -0.3933707 -0.044321414 0.13474792
000010 04 3d 3c 3f 84 0d 80 3e fe be e4 3c 80 d6 e2 3e
       0.735306 0.25010312 0.027923103 0.44304276

weight f4 [3, 8]
000000 61 2b 41 3d 78 f9 d5 3d 14 7d 76 be 9c ca 94 3d
       0.04716051 0.10447973 -0.24071151 0.07265207
000010 30 15 12 bf c1 c3 f8 be 88 92 a1 be 38 ab ff bd
       -0.5706358 -0.48586848 -0.31557107 -0.12483829
000020 e6 38 2c be a4 fc de 3d fe c6 c7 be 08 ae 34 bd
       -0.1681858 0.10888031 -0.39019006 -0.04411128
000030 a6 7c 0c bf 62 e5 4c be 6a 76 a1 be 12 75 a8 bd
       -0.548777 -0.20009378 -0.31535655 -0.082254544
000040 01 a2 6b 3e 42 9a 62 3e de 9b 9e bc 53 92 a0 3e
       0.23011018 0.22129157 -0.019361433 0.31361637
000050 b1 57 65 3e 71 5d 7b 3e f3 82 be 3e 1f b3 74 3d
       0.22396733 0.24547364 0.3720928 0.059741136

bias f4 [3]
000000 6c ff 23 bf 87 a1 1c bf c4 cf 19 3e
       -0.6406162 -0.6118397 0.15020663
